…
2021-07-04 04:47:49.687458: I tensorflow/core/common_runtime/gpu/gpu_device.cc:1277] 0:   N 
2021-07-04 04:47:49.690164: I tensorflow/core/common_runtime/gpu/gpu_device.cc:1418] Created TensorFlow device (/job:localhost/replica:0/task:0/device:GPU:0 with 1359 MB memory) -> physical GPU (device: 0, name: NVIDIA GeForce MX130, pci bus id: 0000:01:00.0, compute capability: 5.0)
Model: "sequential"
_________________________________________________________________
Layer (type)                 Output Shape              Param #   
=================================================================
conv2d (Conv2D)              (None, 86, 56, 60)        1560      
_________________________________________________________________
conv2d_1 (Conv2D)            (None, 82, 52, 60)        90060     
_________________________________________________________________
max_pooling2d (MaxPooling2D) (None, 41, 26, 60)        0         
_________________________________________________________________
conv2d_2 (Conv2D)            (None, 39, 24, 30)        16230     
_________________________________________________________________
conv2d_3 (Conv2D)            (None, 37, 22, 30)        8130      
_________________________________________________________________
max_pooling2d_1 (MaxPooling2 (None, 18, 11, 30)        0         
_________________________________________________________________
dropout (Dropout)            (None, 18, 11, 30)        0         
_________________________________________________________________
flatten (Flatten)            (None, 5940)              0         
_________________________________________________________________
dense (Dense)                (None, 500)               2970500   
_________________________________________________________________
dropout_1 (Dropout)          (None, 500)               0         
_________________________________________________________________
dense_1 (Dense)              (None, 10)                5010      
=================================================================
Total params: 3,091,490
Trainable params: 3,091,490
Non-trainable params: 0
_________________________________________________________________
None
2021-07-04 04:47:50.073817: I tensorflow/compiler/mlir/mlir_graph_optimization_pass.cc:176] None of the MLIR Optimization Passes are enabled (registered 2)
Epoch 1/20
2021-07-04 04:48:03.393207: I tensorflow/stream_executor/platform/default/dso_loader.cc:53] Successfully opened dynamic library cudnn64_8.dll
…
