…
2021-09-09 10:30:05.443173: I tensorflow/core/common_runtime/gpu/gpu_device.cc:1277] 0:   N 
2021-09-09 10:30:05.443494: I tensorflow/core/common_runtime/gpu/gpu_device.cc:1418] Created TensorFlow device (/job:localhost/replica:0/task:0/device:GPU:0 with 1359 MB memory) -> physical GPU (device: 0, name: NVIDIA GeForce MX130, pci bus id: 0000:01:00.0, compute capability: 5.0)
Model: "sequential"
_________________________________________________________________
Layer (type)                 Output Shape              Param #   
=================================================================
conv2d (Conv2D)              (None, 28, 28, 60)        1560      
_________________________________________________________________
conv2d_1 (Conv2D)            (None, 24, 24, 60)        90060     
_________________________________________________________________
max_pooling2d (MaxPooling2D) (None, 12, 12, 60)        0         
_________________________________________________________________
conv2d_2 (Conv2D)            (None, 10, 10, 30)        16230     
_________________________________________________________________
conv2d_3 (Conv2D)            (None, 8, 8, 30)          8130      
_________________________________________________________________
max_pooling2d_1 (MaxPooling2 (None, 4, 4, 30)          0         
_________________________________________________________________
dropout (Dropout)            (None, 4, 4, 30)          0         
_________________________________________________________________
flatten (Flatten)            (None, 480)               0         
_________________________________________________________________
dense (Dense)                (None, 500)               240500    
_________________________________________________________________
dropout_1 (Dropout)          (None, 500)               0         
_________________________________________________________________
dense_1 (Dense)              (None, 36)                18036     
=================================================================
Total params: 374,516
Trainable params: 374,516
Non-trainable params: 0
_________________________________________________________________
None
2021-09-09 10:30:05.738900: I tensorflow/core/profiler/lib/profiler_session.cc:126] Profiler session initializing.
2021-09-09 10:30:05.739118: I tensorflow/core/profiler/lib/profiler_session.cc:141] Profiler session started.
…
